Model: "sequential_1"
_________________________________________________________________
Layer (type)                 Output Shape              Param #   
=================================================================
conv2d (Conv2D)              (None, 64, 64, 32)        2432      
_________________________________________________________________
layer_normalization (LayerNo (None, 64, 64, 32)        64        
_________________________________________________________________
leaky_re_lu_5 (LeakyReLU)    (None, 64, 64, 32)        0         
_________________________________________________________________
conv2d_1 (Conv2D)            (None, 32, 32, 64)        51264     
_________________________________________________________________
layer_normalization_1 (Layer (None, 32, 32, 64)        128       
_________________________________________________________________
leaky_re_lu_6 (LeakyReLU)    (None, 32, 32, 64)        0         
_________________________________________________________________
conv2d_2 (Conv2D)            (None, 16, 16, 128)       204928    
_________________________________________________________________
layer_normalization_2 (Layer (None, 16, 16, 128)       256       
_________________________________________________________________
leaky_re_lu_7 (LeakyReLU)    (None, 16, 16, 128)       0         
_________________________________________________________________
conv2d_3 (Conv2D)            (None, 8, 8, 256)         819456    
_________________________________________________________________
layer_normalization_3 (Layer (None, 8, 8, 256)         512       
_________________________________________________________________
leaky_re_lu_8 (LeakyReLU)    (None, 8, 8, 256)         0         
_________________________________________________________________
conv2d_4 (Conv2D)            (None, 4, 4, 512)         3277312   
_________________________________________________________________
layer_normalization_4 (Layer (None, 4, 4, 512)         1024      
_________________________________________________________________
leaky_re_lu_9 (LeakyReLU)    (None, 4, 4, 512)         0         
_________________________________________________________________
flatten (Flatten)            (None, 8192)              0         
_________________________________________________________________
dense_1 (Dense)              (None, 1)                 8193      
=================================================================
Total params: 4,365,569
Trainable params: 4,365,569
Non-trainable params: 0
_________________________________________________________________
